system/wakeword_models/hey_comma_v15.onnx (onnx, 205410 bytes, 9 tensors)

layer1.weight f4 [32, 1536]
00000000: 7387 f1bc 2748 14bc c44b 23bd c713 a7bd
00000010: d6d2 073d 5e60 083d aa23 453d c822 f33c
00000020: 3c44 403c 1ed4 78b9 eef3 183c 7b5a b8bd
00000030: ec97 f6bc 3803 34bd 39e9 1f3d ee75 a03a
00000040: 9028 1d3c c7b4 193d 826b d83c 2824 aabc
00000050: f28e 84bc 0dae 503d bc57 e7bc 2871 21bc
00000060: f403 c43d 4111 893c ddb0 babc 2640 e73c
00000070: 2458 883d ebc6 e63c f7e1 503c e376 523d
00000080: bd28 1ebd 7348 ba3c d556 583c a02a 7e3c
00000090: f8d6 9abb 235d 2f3d c6c9 cb3c 5e7d c03a
000000a0: d8ab 443b 87cb 88bd fc16 343d b136 0cbd
000000b0: ba91 61bd 3b75 8c3d 4c8c 79bd e0e6 c03d
000000c0: 873d 3f3b fff4 f53d 78d6 93bc ae6c a93c
000000d0: 25c5 36bd 065a 77bd 7d21 caba 51ed c43a
000000e0: aea1 d03c ed47 0a3d 94e4 d2bc eb95 c8bd
000000f0: ccf0 f4bb 1fb4 233d b9a6 f83a adb2 263d
00000100: 7694 6abc c40e 4fbc a645 09be 7576 21bd
00000110: d506 35ba d748 c23c a2aa 103c b53f d53c
00000120: 0c44 98bc 50bd 8ebb 580d 913c e217 b33c
00000130: 1088 22bd c415 58bd 3f2b 203c 7aa5 7ebc
00000140: ffdf 8e3d 143d f03c a67a 243d 924d 343c
00000150: 32a9 8ebb c671 a9bd 1348 3cbd 3732 a5bd
00000160: 96f2 973b 91f4 0d3c 5c8d 383d 9b8f 39bc
00000170: 0355 f13c 7423 253c 1086 d63d 659f a4bc
00000180: d155 2ebd 31e4 a63c d5fb 21bd 1218 21bd
00000190: fea9 14bd 44f4 973c 6507 7e3d 8630 393d
000001a0: f81a 2e3d 51a3 8abb e240 82bc 4ccb 153d
000001b0: e397 75bd 4c9b 23bc 4e80 ac3d 8cf7 c23b
000001c0: 0b4b a53c 87aa e83c 599b 923d 3ac0 0a3a
000001d0: dd31 b0bc 6135 a03c 8bcc ddbb 19c4 f7bc
000001e0: 712e 023d 0a76 423d 6569 40bd 31be 75bc
000001f0: 3230 863d cb8c 11bd 33f7 92bb 076e 823b
00000200: df64 093b c3e6 3b3d f63f 073c 460d 293d
00000210: 7515 12bb 5d07 98bb 963e 9cbd e2f9 263b
00000220: 3a35 dcbc f038 84bc 0223 3f3c 4527 e5bc
00000230: e95e b6bb 0424 db3c cf66 e5bc 8e9d 2ebd
00000240: e942 923d 8f9b af3d 2d92 22bd e091 843d
00000250: eea2 b63c 7570 47bd 37df 5ebc 856f 3dbd
00000260: fd2a e73b a0d1 0bbb 45b1 233c 7536 95bd
00000270: 3c64 ae3c 6003 8b3d e93a abbc 18b5 193d
00000280: 3abf cdbc 0fe0 f3bc f26f 00be 8a04 27bc
00000290: 78c6 18bd 28ce 433d 054e dfbc ff05 a03c
000002a0: 9992 273d 3df9 3e3d 12db 1d3d 6050 86bc
000002b0: d840 70bd b5ac 483d a2d3 dfbc 0a26 85bc
000002c0: 7659 293d 1665 9d3a d8ac 753b fe50 443d
000002d0: 58fe c83b 1469 f9ba b827 24bd 3001 0abd
000002e0: 1054 7c3c 16ac 343d 4d64 c13b f251 88bb
000002f0: 35c8 843d f722 be3a 66e9 a23d c358 e9bc
00000300: 6d9d 73bd 91c3 0a3d 5376 32bd 8c36 d3bc
00000310: 4140 423d 3492 6f3c 6aa3 003d 04e8 783d
00000320: afd2 7b3c 62c9 153d 3667 7dbd f3da 75bd
00000330: 71f7 d33c 778c e13a 4e09 023d b014 6abc
00000340: fc20 243d 7fb3 6dbc 3a65 7a3d ec9b 16bd
00000350: 0a63 cfbb 4e41 7b3d 0752 66bc 5ec4 93bc
00000360: 6dd8 453d 529d 2f3d 564e 36bd 3aba a8bb
00000370: b9d8 2f3d 630e c23c 3381 693b b27e b2bc
00000380: 9b17 d5bc d87d 073d 0b18 51bc 5cfd d73c
00000390: 7a79 2bba b704 fc3b c399 f23c 9307 f73b
000003a0: 22f0 d5bc ff8b de3c 7b5b 093d 49bb 3dbd
000003b0: 6d3c 41bb 815c 353b 0c96 7bbd 180e b4bd
000003c0: 067b 293d d103 c83d d1e8 f1bc b8bd e13b
000003d0: d208 ce3c 6faf 93bd bfe0 80bc 6930 ac3c
000003e0: c179 5e3d 2918 8aba e42c 473c d5f1 dabc
000003f0: ec3a 833d 2840 c23d 2d6d ebbc 3586 d93c
-0.029483533 -0.009050406 -0.039867178 -0.08158069 0.033160053 0.033295028 0.048129715 0.02967967
0.011735018 -0.00023730143 0.009335501 -0.09001633 -0.030101739 -0.043948382 0.039040778 0.0012242177
0.00959219 0.03752592 0.026418451 -0.020769194 -0.016181443 0.050947238 -0.028240077 -0.009853639
0.095710665 0.01673186 -0.022789413 0.02822883 0.066574365 0.028171023 0.012749187 0.05138291
-0.03861307 0.022739625 0.013204296 0.015513092 -0.0047253333 0.04281343 0.024876487 0.00146858
0.0030009653 -0.06679445 0.043967232 -0.034231845 -0.055070616 0.068582974 -0.060924813 0.09419036
0.002918096 0.1200962 -0.018046603 0.020681705 -0.044621605 -0.060388587 -0.0015421357 0.0015024339
0.02546772 0.03376 -0.02574376 -0.097942196 -0.0074749943 0.0399667 0.0018970586 0.040697742
-0.014317622 -0.012637798 -0.13405475 -0.03941961 -0.000690562 0.023716373 0.0088297445 0.026031354
-0.018587135 -0.004356064 0.017706558 0.021861974 -0.03968054 -0.052755132 0.009775936 -0.015542382
0.069763176 0.029326 0.04015603 0.011004822 -0.0043536657 -0.08273654 -0.045967173 -0.08066218
0.004637073 0.008664266 0.045056686 -0.011325742 0.029459482 0.010079253 0.10474789 -0.020095536
-0.04256231 0.020372482 -0.039546806 -0.039329596 -0.03629493 0.018549092 0.06201877 0.04521229
0.04250619 -0.0042308946 -0.01590008 0.036570832 -0.059959304 -0.009985756 0.0842291 0.00594992
0.020177385 0.028401626 0.071585365 0.0005292926 -0.021508152 0.019556703 -0.006768768 -0.030244874
0.03178257 0.047475852 -0.046975512 -0.014998958 0.06552161 -0.03553466 -0.004485035 0.0039804014
0.0020964665 0.04587437 0.008254996 0.041272424 -0.0022290621 -0.0046395496 -0.07629125 0.0025478532
-0.02688085 -0.016140431 0.011666061 -0.027972827 -0.0055655134 0.026750572 -0.028003125 -0.042630725
0.07141668 0.08574592 -0.039690185 0.06473136 0.022294488 -0.04869123 -0.013603023 -0.04624893
0.007054685 -0.0021334663 0.009990995 -0.072857775 0.02128803 0.06787753 -0.020902114 0.03752622
-0.025115598 -0.029769925 -0.12542704 -0.010193953 -0.03729865 0.047804028 -0.027258882 0.01953411
0.04091129 0.04662441 0.038539 -0.016395748 -0.05865559 0.04899283 -0.027322594 -0.01625349
0.041345082 0.0012008275 0.0037487056 0.047928803 0.0061338358 -0.0019028508 -0.04007694 -0.03369254
0.015400901 0.044109426 0.0059018494 -0.0041601593 0.06483499 0.001450627 0.079546735 -0.028484708
-0.059476305 0.033877913 -0.043569874 -0.025782846 0.04742456 0.01462226 0.031405844 0.060768142
0.015370055 0.036569007 -0.061866008 -0.06002326 0.025874825 0.0017208 0.031747155 -0.014287159
0.04007052 -0.014508127 0.061131693 -0.036769792 -0.006328945 0.061341576 -0.014057643 -0.018037971
0.048302103 0.04287464 -0.0445083 -0.005149153 0.042931292 0.0236885 0.0035629987 -0.021788929
-0.026012233 0.033079 -0.01276208 0.026365928 -0.0006541234 0.0076909917 0.029614335 0.0075387447
-0.02611548 0.027166365 0.03353451 -0.046321187 -0.002948548 0.0027673545 -0.061422393 -0.08791751
0.04137709 0.09766353 -0.02952996 0.0068890713 0.02515069 -0.07211196 -0.015732167 0.021019178
0.054315332 -0.0010535765 0.012156699 -0.026726643 0.06407723 0.09484893 -0.028738583 0.026553253

layer1.bias f4 [32]
00000000: 93d6 023c f95d dd3c 409e 413b 443f 49bc
00000010: 34f4 dd3b 479b 3b3c cc6a 003d 19da f4ba
00000020: 960f 033d 7cfe 023d dae0 663c 9958 7f3c
00000030: c214 d03c 400c 4ebb 360f 2abc 3453 593c
00000040: 72f6 d73c cc36 2a3b bf51 953a 874f 2b3b
00000050: 6341 013d ea22 ef3b 6eb4 c03b bfad c9bb
00000060: 7dbd cc3c cd15 2e3c a358 91bb 6363 6bbc
00000070: 5dd0 1c3d 7a16 0f3d 5d9b e93b 6598 473c
0.007985729 0.027022349 0.0029543787 -0.01228315 0.006773496 0.011450595 0.03135185 -0.0018680721
0.031997286 0.031980976 0.014091695 0.015585088 0.025400523 -0.0031440407 -0.010379603 0.013264466
0.026362631 0.0025972603 0.001139216 0.0026139931 0.0315565 0.0072978633 0.005880884 -0.0061547454
0.024992699 0.010625315 -0.004435615 -0.014366957 0.03828465 0.034933545 0.0071291164 0.01218233

layernorm1.weight f4 [32]
00000000: 6b2d 7b3f 1ab9 733f 2362 863f e5b5 783f
00000010: 3838 6f3f 8e0b 833f 6b61 783f 4f46 763f
00000020: 74f2 773f 718e 7c3f e0dd 823f 93d1 7a3f
00000030: 5448 783f 70d9 803f c059 813f 89b2 8a3f
00000040: 8e7a 833f 5bad 823f d038 8c3f 26f7 643f
00000050: cb6a 8a3f 452f 903f ccaa 7e3f 273d 863f
00000060: ba13 933f 42f9 733f 67c5 5c3f 94fd 783f
00000070: a1d6 823f cf73 813f 4cc8 603f f450 783f
0.9811618 0.9520432 1.0498699 0.9715255 0.9344516 1.0237901 0.9702365 0.9620103
0.9685433 0.9865485 1.0223961 0.97976035 0.96985364 1.0066357 1.0105515 1.0835735
1.0271776 1.0209154 1.0954838 0.8943962 1.0813841 1.1264426 0.99479365 1.0487412
1.1490395 0.9530221 0.8623871 0.9726193 1.022175 1.0113467 0.8780563 0.96998525

layernorm1.bias f4 [32]
00000000: 9b6e 853c 6de5 58bd e98d b4bb d4ab 80bd
00000010: 6066 54bd 0b73 08bd 2a89 99bd 3b11 6e3b
00000020: 2922 e4bb 35f8 86ba 024d 01bd 7015 2dbc
00000030: 8f2a 37bd 2dfa bdbb 6858 e3bc e53a aebc
00000040: 0c82 513b 37c5 243a 5724 6b3c a846 86bd
00000050: 175e 85bc 05e7 cd3b 2f1f 8cbc bcea a83c
00000060: f2f3 0b3c 3548 9ebd c12c 99bd 2498 62bd
00000070: a2c8 3ebd 3d7f b8bc f0ab 08bd 22e3 a5bc
0.016288092 -0.052953172 -0.005510081 -0.062827736 -0.051855445 -0.03331284 -0.07496865 0.0036326188
-0.00696208 -0.001029736 -0.03156758 -0.010564193 -0.04471832 -0.0057976455 -0.027752116 -0.021268317
0.0031968383 0.0006285491 0.014351926 -0.06556445 -0.016280217 0.006283643 -0.017104713 0.020619743
0.008542048 -0.07728616 -0.07479239 -0.055320874 -0.046578057 -0.02252161 -0.033367097 -0.020249907

blocks.0.fcn_layer.weight f4 [32, 32]
00000000: c60a 25be b038 213d 5f56 893e 0cde 663d
00000010: 6c16 1d3e 07f3 553e d22e dcbc 7f6b 933d
00000020: c521 63be 0972 023d 53c3 e7bb c262 423e
00000030: b7d9 e83d 9cb3 153e 949a 27be 9aba 4bbe
00000040: a032 7fbd 5bde e33d c5b3 403e f4ea d83d
00000050: 3b1d 6dbe 5bc1 7a3e f763 ad3d f3ed 3bbd
00000060: 377f 613d 289a 693d fe76 b43d 2e94 9b3d
00000070: f5b5 16be e479 433d 0513 b0bd 1554 8c3d
00000080: d42a 11be bb8c a9bc 8951 963d 2519 b8bd
00000090: a6b2 133d 5533 6c3e 5b6a 17bd 5016 923d
000000a0: fc33 863d e612 ddbb 7d5f ad3c ebe1 1d3d
000000b0: fcee ba3b 5b1d d8bc b93d 3d3d 9518 4d3d
000000c0: e3e6 96bd a5a1 433d 9d0c 963d 24fe b2bc
000000d0: 91c5 44bc b762 1c3d 8d16 d8bd e024 4fbe
000000e0: 721a 573d 6500 45bd 0e23 9f3b 51ed 1b3e
000000f0: 87ca 3b3d c019 5d3d 1150 1dbc c4d3 c73d
00000100: 1c54 8b3d b814 b63c 8391 4d3e 24b7 063e
00000110: 2701 5cbd c36a 4bbd 9dfa 463d 79ad 48bc
00000120: da4c fe3d cfa7 2cbe 9700 683d 4d3c d7bc
00000130: 354b 843c e889 033d 3db6 023e 32f2 96bd
00000140: 36b6 0abe d6e9 c1bd ae86 1abd 2704 bb3d
00000150: 03d0 5cbd 0dca 273d bb7b 7ebc d873 40bd
00000160: 2bef ac3d 0e68 99bd 7cdf 0d3d a625 5bbc
00000170: ada0 4fbc 0f97 1d3d 8343 42bd 81db 053c
00000180: cf61 1e3e 7d36 17be 9707 023a 0c09 083d
00000190: f802 e43d e120 a43c e8cd d43d 6132 df3d
000001a0: 65df b73d 1d57 f53d 776c 573e d70a b3bd
000001b0: 6ac8 0a3e bbcc 903d 1f1a 0b3e c004 cf3b
000001c0: 84cf 4c3e 1411 f0bd a460 56be 201e 0a3e
000001d0: 5230 a83d e852 2dbe 2a7f b8bc b572 363d
000001e0: ca9c 5cbe 905e 14be a3d3 9c3d 658b e53d
000001f0: d771 edbc 780e b33d 0fd2 c6bd e985 a63d
00000200: ca73 5bbd de9e e33d 4974 423e 3a96 de3c
00000210: 65fe 48bd 9ad9 22bd d108 973d 79d1 273d
00000220: cca9 2abe f930 c6bb a590 fa3d 5c11 7bbd
00000230: 1133 0ebe 622f 063c a4e9 d83d e877 40be
00000240: 2cef a2bd 4408 02bd 7bd4 bcbd c563 6cbd
00000250: 32b9 e1bd f901 1c3d 381b d8bc 44f0 2ebe
00000260: bea0 5b3d 0101 e3bc 5848 bfbd 6469 d53d
00000270: 7e96 61bc fc1f 013e fc3d 983d 6731 d5bd
00000280: 4756 f6bc 82b2 c1bd 8128 84bc ece3 c53d
00000290: 8c8b 3c3e c341 11bd 9e3b 2c3c 5fca 1b3d
000002a0: dd61 8f3d 6a6b 43bd 83e0 bdbd e836 95bc
000002b0: 46c5 10be abbe 523d b48b 923c f5c5 0abe
000002c0: 92f1 c7bc ac8b cd3d b5d6 47bd 57a2 04be
000002d0: cbf4 9fbc 7ec9 82bd 6804 15bb 0321 d63c
000002e0: b213 bdbd 32e5 91bd 4e3f 1a3e 41f2 d83b
000002f0: 2151 843e d0bc 223e 62e3 353d 7b5c 33be
00000300: 31e8 35be 6bd0 203d 4142 8cbc 24b9 f5bd
00000310: 6772 913c a0b6 f03d e607 873d b923 9c3c
00000320: d09e d4bc 2de2 c83c 6653 4abd 6059 0cbe
00000330: dddf f2bc 07b3 813d 4156 a33d fa46 82bd
00000340: 6e0b d5bd d678 07be c72e 733c a260 d9bc
00000350: da32 b2bc 1281 363d eabb c2bd 93bb 78bd
00000360: 93bd 9b3d 930c 973d bb48 133d 4a3d 5d3d
00000370: 633f 3f3c 3c3d cdbc 6ce9 a63d 2b9f 14bd
00000380: 986c f23d e3a7 85bc 9d52 6a3e 8c4a 06be
00000390: a9ce 1ebe 7b03 243d bdf6 5bbe 8b77 ecbd
000003a0: dba1 fcbc 6f93 b63d 293f 23be b62d 063d
000003b0: 32f1 a2bd 93d2 1c3e 4325 12be 05ab bbbc
000003c0: d2a3 34be 488b 163e a522 a93d 2c71 1ebe
000003d0: f900 60be c674 703e 5f8b 27be 382b a23c
000003e0: da82 7d3e 2c2e a2bc b838 44bd 6bf9 353d
000003f0: c53c 0abe 7e63 53be 22e8 52bd 7067 2dbd
-0.16117391 0.039360702 0.26823708 0.056364104 0.15340585 0.20893489 -0.026877794 0.07198238
-0.22180851 0.031847034 -0.007072845 0.18982986 0.11369651 0.14619297 -0.1636756 -0.19895402
-0.06230414 0.11126395 0.18818577 0.10591689 -0.23155682 0.24487822 0.084663324 -0.045881223
0.055052962 0.05703178 0.088117585 0.075966224 -0.14717849 0.047723666 -0.08597378 0.06851975
-0.14176494 -0.020696988 0.0733977 -0.08989171 0.036059044 0.23066457 -0.036966663 0.07133162
0.06552884 -0.0067466376 0.021163696 0.03854553 0.0057047587 -0.026381185 0.04620144 0.05007227
-0.07368257 0.047761578 0.073266245 -0.0218497 -0.012009994 0.03818008 -0.10551176 -0.2022891
0.052515455 -0.04809608 0.0048564738 0.15227248 0.045847442 0.053979635 -0.009601609 0.09757188
0.06803152 0.022226676 0.2007504 0.131558 -0.053712036 -0.049662363 0.048578847 -0.01224839
0.12417002 -0.16860889 0.056641188 -0.02627387 0.016149143 0.03211394 0.12764831 -0.07370414
-0.1354607 -0.09468429 -0.037726097 0.09131651 -0.053909313 0.040964175 -0.015532429 -0.046985477
0.08444055 -0.0749055 0.03463696 -0.013375675 -0.012672585 0.03847414 -0.047427665 0.00817001
0.15466999 -0.1476688 0.00049602374 0.033211753 0.11133379 0.02003521 0.10390836 0.10898281
0.08978156 0.11979506 0.2103747 -0.08742302 0.13553014 0.07070299 0.13584183 0.006317705
0.20001036 -0.117220074 -0.20935303 0.13488054 0.08212341 -0.16926157 -0.022521574 0.044542987
-0.21544185 -0.14489198 0.07657554 0.11208228 -0.028984947 0.08742994 -0.09708034 0.0813101
-0.053577222 0.11114286 0.18989672 0.027171243 -0.049070735 -0.039758302 0.073747285 0.040971253
-0.16666335 -0.0060483185 0.1223462 -0.061295852 -0.13886668 0.008190008 0.105914384 -0.1879574
-0.07955775 -0.031746164 -0.09220215 -0.057712335 -0.11021651 0.03808782 -0.026380166 -0.17083842
0.053620093 -0.02771044 -0.0933997 0.10420492 -0.01376879 0.12609857 0.074336976 -0.104098134
-0.030070437 -0.09457876 -0.016132595 0.09662613 0.18412608 -0.035463106 0.010512261 0.038034793
0.07001088 -0.04770986 -0.09271338 -0.018214658 -0.14137754 0.051451366 0.017888881 -0.13552077
-0.024407182 0.10036406 -0.048788745 -0.12952553 -0.019525906 -0.06386088 -0.0022738222 0.026138788
-0.09232272 -0.07123794 0.15063211 0.006620676 0.25843146 0.15892339 0.044406302 -0.17515747
-0.17764355 0.039261263 -0.017121436 -0.119982034 0.017754747 0.11753583 0.065933034 0.019060003
-0.025954634 0.024521912 -0.04939594 -0.13705969 -0.029647762 0.06332975 0.07975436 -0.06361194
-0.10402571 -0.13229689 0.014842696 -0.026535336 -0.021752764 0.044556685 -0.09508498 -0.06072576
0.07604518 0.07375445 0.035958033 0.054013528 0.011672827 -0.025053613 0.081499904 -0.036284607
0.11837119 -0.016315406 0.22883077 -0.13114375 -0.15508522 0.04004238 -0.21480842 -0.115462385
-0.030838897 0.089148395 -0.15942062 0.032758437 -0.079561606 0.15314703 -0.14272027 -0.022908697
-0.17640617 0.14701569 0.08258561 -0.15472859 -0.21875371 0.23482046 -0.1636176 0.019795999
0.24756947 -0.019797407 -0.047905654 0.044427317 -0.13499744 -0.20643422 -0.05149091 -0.042334974

blocks.0.fcn_layer.bias f4 [32]
00000000: b19a d43d e8a2 cfbc 169f a8bc 387b f1bc
00000010: d63f b33d 4b5f fabd b6ec e93c 9e88 c73d
00000020: 01ae 763d b432 253e e5bc 163e 27d0 a6bc
00000030: 6718 b33d f640 debd ba14 1dbd 9a91 7fbd
00000040: 771c 293e ade0 24be 535a 26bd 54ee 0e3e
00000050: c7fb e8bd fc34 c6bd 50bb 03be 9afa 99bc
00000060: eb96 163e e9eb 24be 4803 0e3d 4b27 aabc
00000070: bf56 83bc 67b7 213d 3b30 0f3e 7cb3 de3d
0.103810675 -0.025346234 -0.02058367 -0.0294777 0.0875241 -0.12225207 0.028555255 0.097428545
0.060224537 0.16132623 0.14720495 -0.020362927 0.08744889 -0.10852234 -0.038349845 -0.062394716
0.16514765 -0.16101332 -0.040613484 0.13958102 -0.11376148 -0.09678075 -0.12864423 -0.018796254
0.14706008 -0.16105618 0.034671098 -0.02077069 -0.016032575 0.039481547 0.13983242 0.10874078

blocks.0.layer_norm.weight f4 [32]
00000000: 90ac a13f 29b8 5d3f 89e9 883f 001d a63f
00000010: 9e47 913f 32dc 953f 46bc 803f 6116 9f3f
00000020: 782a 9f3f 656f a63f 1439 8d3f eea0 a63f
00000030: 42c4 a83f 0011 8a3f 4d90 953f d8b1 863f
00000040: 9e9e a83f b064 863f 7da1 a13f 9bb0 9f3f
00000050: c7e2 893f f314 9b3f 904c a03f 590a 813f
00000060: 5288 aa3f 4deb 9d3f dd1e 903f 8ade a03f
00000070: 1b51 a93f bac2 753f 84b5 a13f 1019 a43f
1.2630787 0.8660913 1.0696269 1.29776 1.1349981 1.1707823 1.0057456 1.2428705
1.2434835 1.3002745 1.1033044 1.3017862 1.3184893 1.0786438 1.1684662 1.0523024
1.3173406 1.0499477 1.2627407 1.2475771 1.0772332 1.2115768 1.2523365 1.0081283
1.3322852 1.2337433 1.1259419 1.2567914 1.3227876 0.96000254 1.2633519 1.2820148

blocks.0.layer_norm.bias f4 [32]
00000000: 2149 f93d f5d4 03be e2c2 423d 32a3 873e
00000010: 9ac1 0c3e c6b6 e93d 15ec c9bb 5111 173e
00000020: a14e 7b3e be1b 803e 61ab 643d 0967 223e
00000030: 53a9 8b3e a81d d43c 4a9c 423d f095 763c
00000040: d703 833e 499a 7f3c 9a1f 0d3e 7510 7d3e
00000050: 275d ae3d 591f f63d 4619 203e 4615 3ebd
00000060: d8f6 863e 2d22 0f3e 994b b23d eb53 183e
00000070: ea85 303e 7ce3 92bd 7d10 743e 293a 833e
0.12172151 -0.12874205 0.047549136 0.26491696 0.13745728 0.114118144 -0.0061621764 0.147527
0.24541713 0.25021166 0.055827502 0.15859617 0.27277622 0.025893047 0.04751233 0.015050396
0.25588867 0.015600749 0.13781586 0.24713309 0.08513861 0.12017698 0.15634641 -0.046407007
0.26360202 0.13977881 0.08705825 0.14875762 0.17238584 -0.071722955 0.23834415 0.2563031

last_layer.weight f4 [1, 32]
00000000: 9d54 b53e d8ec ecbb 9c2a adbd b77a cebe
00000010: 520f ff3d ea65 81be 2523 693d d4d1 813e
00000020: 2a4b c6be 67b5 ccbe 04f8 193e 2f39 9c3e
00000030: 3238 ccbe ed40 31be 90a5 713e d16b 1cbe
00000040: bb1c b5be b99a 8fbd 8fa0 b83e 5781 bfbe
00000050: 6f8c d63d 9e3d bb3e 10fe b63e c520 f1bd
00000060: 8ac9 aebe bed3 883e 20ca 063e 346d 8f3e
00000070: 0ff5 b33e 1711 a53d 1669 aabe fdf1 cebe
0.35416117 -0.0072303824 -0.08455393 -0.40328 0.12454094 -0.25273067 0.056918282 0.253554
-0.3872922 -0.3998215 0.15036017 0.30512378 -0.39886624 -0.17309923 0.23598313 -0.15275504
-0.35373482 -0.07011933 0.36059996 -0.37403366 0.10476004 0.36570448 0.3574071 -0.117738284
-0.34138137 0.26724046 0.13163042 0.28013003 0.35147902 0.080599 -0.332833 -0.40418997
